params/policy.pth.tar (torch, 47467 bytes, 8 tensors)

fc1.weight f4 [128, 4]
0.20377816 -0.08993423 -0.19052798 0.0072660036 -0.29245302 -0.0035351776 -0.07003924 -0.0077248025
0.21230689 -0.15102717 -0.0038916916 -0.120850936 0.046769388 -0.24352764 -0.270554 -0.16430487
-0.46623975 0.0019553988 0.243739 0.03574275 0.051275723 0.12834562 0.28514257 -0.055621102
0.09860355 0.06045881 -0.11207315 -0.20952313 -0.23986582 -0.1432752 0.19977948 -0.014012516
0.28688008 0.21516125 -0.27683288 0.1038904 -0.3516043 0.5001861 0.30961034 -0.20921838
-0.13878496 0.19872212 0.082116656 -0.01811833 0.105674595 -0.07779808 0.034228235 -0.15488806
-0.055708423 0.16532698 -0.11277445 -0.17818859 -0.09815072 0.040395226 0.19863069 -0.06852513
-0.041891288 -0.11420573 0.014113259 0.0031843793 0.10057807 -0.19991964 0.017545879 -0.11916175
-0.032472517 -0.11324294 -0.38239145 -0.189762 0.14086446 0.21338056 0.20391785 0.1699881
0.12997288 0.06693572 0.14614235 0.10134554 -0.3976375 -0.11767603 0.018047048 0.15974657
-0.035843503 -0.25096825 0.12632059 0.09097194 -0.20313227 -0.011610222 0.04570356 0.26675478
-0.038214635 0.08675753 0.18944836 0.14935689 -0.14225514 -0.40169466 -0.45989183 0.24306178
-0.36057767 -0.11043487 0.15440468 -0.094544865 -0.1497406 -0.4305374 -0.7962326 0.05519756
0.039737113 0.30111343 0.19117709 -0.078057334 0.06519409 -0.29811233 0.11380466 0.19263919
-0.034906376 -0.17721121 0.08668439 0.20048138 -0.24052055 -0.03159933 0.07901965 0.085403435
-0.079727925 -0.32230672 -0.64477295 -0.008999538 -0.25818437 0.06502541 0.019627731 0.0020131725
-0.27554783 -0.18368386 0.04143432 -0.049972422 0.33704 0.019993098 0.13316937 -0.27577943
-0.012097279 0.18705821 0.18434785 -0.07754497 -0.11520275 -0.51245517 -0.21495757 0.15566851
0.02738469 -0.10320417 0.08748869 -0.27830708 -0.24144615 -0.19698425 0.11149643 0.15219568
-0.14405519 -0.14525183 0.0097902855 -0.021468211 0.07008986 0.11063725 0.19765794 0.2261966
0.15451321 -0.025439784 -0.1433939 -0.057485625 0.059145004 -0.02420628 -0.19941634 -0.1675179
0.14855659 -0.07611312 -0.047209352 -0.029240847 0.033416092 -0.27464023 -0.24859661 0.3296045
-0.5534063 -0.0082904855 -0.05554013 -0.020743497 0.012461154 0.009466447 0.11495439 0.17704067
-0.13082814 -0.053203978 0.16452953 -0.02062308 -0.022599505 -0.3325403 -0.39348754 0.20607485
-0.13953964 -0.3439482 -0.36057022 -0.011393934 0.15731953 0.16114917 0.248082 -0.055443734
-0.028935079 -0.18582962 0.056314357 0.21851973 -0.11061959 0.10827118 0.3226188 -0.07363826
0.1328153 0.16229856 -0.20137854 -0.0033095777 -0.13773273 -0.060063332 0.3221546 -0.05138307
0.040481467 0.118048154 0.14227161 -0.059143156 0.27623504 0.071974404 0.14276147 0.08038919
0.35334304 0.3067115 0.075511485 -0.053090446 0.06940236 -0.08358945 0.27543738 -0.036304552
-0.19222194 0.2290553 0.15574165 -0.23323515 0.34594113 -0.12831372 -0.34651023 0.28096914
0.008282334 -0.0431522 -0.09565339 -0.20577665 -0.09507302 0.07664944 0.14733091 0.0026488653
0.09559968 -0.07935141 -0.0355265 -0.012421504 0.15483887 0.13306324 0.23433812 0.16900611
00000000: 39ab 503e 702f b8bd c419 43be a817 ee3b
00000010: 67bc 95be 70ae 67bb bc70 8fbd 5720 fdbb
00000020: fa66 593e dea6 1abe c00b 7fbb b280 f7bd
00000030: 4291 3f3d 4f5f 79be 0e86 8abe 893f 28be
00000040: fab6 eebe 2626 003b b796 793e fd66 123d
00000050: 7e06 523d 096d 033e 35fe 913e f4d2 63bd
00000060: a8f0 c93d a8a3 773d 9c86 e5bd 3b8d 56be
00000070: 639f 75be bcb6 12be fe92 4c3e c094 65bc
00000080: f2e1 923e 3b53 5c3e 0abd 8dbe 7dc4 d43d
00000090: 7b05 b4be 320c 003f 3f85 9e3e 583d 56be
000000a0: a51d 0ebe d07d 4b3e c72c a83d e46c 94bc
000000b0: ec6b d83d 9a54 9fbd e832 0c3d fa9a 1ebe
000000c0: 842e 64bd 7a4b 293e 4af6 e6bd 1277 36be
000000d0: 3f03 c9bd 7775 253d d865 4b3e e756 8cbd
000000e0: 3396 2bbd b2e4 e9bd 4c3b 673c 05b1 503b
000000f0: e0fb cd3d bcb7 4cbe 60bc 8f3c 130b f4bd
00000100: e701 05bd eaeb e7bd d0c8 c3be f850 42be
00000110: c63e 103e 6f80 5a3e d7cf 503e 5c11 2e3e
00000120: 9c17 053e 9815 893d 57a6 153e 408e cf3d
00000130: 2497 cbbe 2100 f1bd 67d7 933c 9b94 233e
00000140: a3d0 12bd e97e 80be 2f5a 013e 7f4f ba3d
00000150: e801 50be cd38 3ebc a833 3b3d 1594 883e
00000160: f386 1cbd efad b13d c0fe 413e 03f1 183e
00000170: 55ab 11be ecaa cdbe f176 ebbe 30e5 783e
00000180: a39d b8be ad2b e2bd 431c 1e3e bda0 c1bd
00000190: 9a55 19be 666f dcbe e6d5 4bbf d616 623d
000001a0: 62c3 223d 8a2b 9a3e edc3 433e 86dc 9fbd
000001b0: 7b84 853d 2ea2 98be 6b12 e93d 3543 453e
000001c0: fdf9 0ebd db76 35be 9687 b13d fe4a 4d3e
000001d0: 054b 76be 4d6e 01bd 0ed5 a13d ffe7 ae3d
000001e0: 6548 a3bd 6305 a5be d70f 25bf cc72 13bc
000001f0: be30 84be 0b2c 853d 56ca a03c 6eef 033b
00000200: 9b14 8dbe 9f17 3cbe 09b7 293d e2af 4cbd
00000210: 8290 ac3e 91c8 a33c 8d5d 083e f632 8dbe
00000220: aa33 46bc 308c 3f3e afc5 3c3e e6cf 9ebd
00000230: 6bef ebbd 4330 03bf d61d 5cbe 9167 1f3e
00000240: db55 e03c b55c d3bd 452d b33d 447e 8ebe
00000250: a93d 77be 3db6 49be 3e58 e43d 2fd9 1b3e
00000260: 3483 13be e5bc 14be 6f67 203c 1ade afbc
00000270: 468b 8f3d c895 e23d d866 4a3e 15a0 673e
00000280: b638 1e3e 1867 d0bc dad5 12be 0c76 6bbd
00000290: 0842 723d 404c c6bc cc33 4cbe d089 2bbe
000002a0: 381f 183e 32e1 9bbd 985e 41bd 808a efbc
000002b0: 50df 083d a59d 8cbe 1c90 7ebe ecc1 a83e
000002c0: 09ac 0dbf d1d4 07bc 0c7e 63bd 44ee a9bc
000002d0: de29 4c3c 2819 1b3c 356d eb3d 264a 353e
000002e0: d0f7 05be 6aec 59bd 6e7a 283e bcf1 a8bc
000002f0: 9922 b9bc b942 aabe 3377 c9be 4905 533e
00000300: 7be3 0ebe fa19 b0be a99c b8be 9fad 3abc
00000310: 5f18 213e 4a04 253e 3509 7e3e f818 63bd
00000320: 4209 edbc 1f4a 3ebe e2a9 663d a3c3 5f3e
00000330: 868c e2bd 48bd dd3d 4b2e a53e a8cf 96bd
00000340: bc00 083e 9831 263e 2d36 4ebe 80e5 58bb
00000350: cf09 0dbe f804 76bd 73f1 a43e 0e77 52bd
00000360: e5cf 253d 3bc3 f13d a6af 113e 1840 72bd
00000370: ae6e 8d3e 5167 933d 1030 123e 16a3 a43d
00000380: 61e9 b43e 4a09 9d3e c4a5 9a3d 5e75 59bd
00000390: d322 8e3d f230 abbd 2106 8d3e 15b4 14bd
000003a0: d4d5 44be 798d 6a3e bd7a 1f3e 32d5 6ebe
000003b0: 321f b13e ac64 03be ca69 b1be 30db 8f3e
000003c0: a0b2 073c 5cc0 30bd ede5 c3bd 1db7 52be
000003d0: a5b5 c2bd 62fa 9c3d eadd 163e 9698 2d3b
000003e0: c4c9 c33d fe82 a2bd 3c84 11bd 9083 4bbc
000003f0: 158e 1e3e bb41 083e 55f6 6f3e f00f 2d3e

fc1.bias f4 [128]
-0.037348825 -0.0061843726 0.01 -0.08528509 0.30452612 0.047939286 0.01 0.1330918
-0.18609037 0.057441242 0.029779 0.01 0.01 0.12413508 -0.06415888 0.01
-0.10418891 0.0030981626 0.03990955 0.26330185 -0.014552826 0.16267759 0.050612267 -0.13130799
0.15597458 -0.28339094 0.016594188 0.009459137 0.07083251 0.013297933 -0.0413331 0.13910949
0.21538185 0.032562926 0.07725291 -0.012597781 -0.060192406 0.16015086 0.039709266 -0.015835006
0.01 0.01 0.01 -0.116292484 0.18482994 -0.030067515 0.08108877 -0.043144766
-0.24427536 -0.005161293 0.13805139 0.20682743 0.01 0.17859203 0.08042682 -0.004820309
0.116432205 0.099287786 0.22629194 -0.19358051 0.01 0.12210215 0.01 0.0366697
-0.17408021 0.090837516 0.11164491 0.06590817 -0.07673839 -0.012220299 0.16592623 0.029462967
0.08888199 0.11283229 0.20499307 0.07074267 0.01 0.14442477 -0.13766578 0.01
0.059773106 0.01 -0.22181477 -0.09366849 -0.011146911 0.01 -0.0047190217 -0.039757647
0.104384184 0.01 0.124297254 0.007857602 0.01 0.13780065 0.21822901 0.08136771
0.14483778 0.116330706 0.06395842 -0.24607286 -0.063724235 0.048952542 0.02721216 0.01
0.01 0.038556777 -0.08996538 -0.006856414 0.0960575 0.08082369 0.1133025 0.39406425
0.0006277931 0.0065814154 0.032734726 0.01 0.2017754 0.1162036 0.0035593256 -0.2551334
0.09936187 0.13819264 0.08098731 -0.05935989 0.09395231 0.01 -0.23875389 0.0068039396
00000000: 15fb 18bd 47a6 cabb 0ad7 233c f3a9 aebd
00000010: d9ea 9b3e fc5b 443d 0ad7 233c 3849 083e
00000020: 798e 3ebe 8247 6b3d 17f3 f33c 0ad7 233c
00000030: 0ad7 233c 883a fe3d bb65 83bd 0ad7 233c
00000040: ff60 d5bd 8b0a 4b3b 3278 233d 80cf 863e
00000050: fa6e 6ebc f494 263e cf4e 4f3d 9a75 06be
00000060: cdb7 1f3e 9e18 91be 89f0 873c 7ffa 1a3c
00000070: a310 913d 93df 593c e64c 29bd b872 0e3e
00000080: 0f8d 5c3e b460 053d c636 9e3d ec66 4ebc
00000090: 508c 76bd 96fe 233e 2fa6 223d 6ab8 81bc
000000a0: 0ad7 233c 0ad7 233c 0ad7 233c c12a eebd
000000b0: 0f44 3d3e 2650 f6bc de11 a63d 91b8 30bd
000000c0: 5223 7abe 1020 a9bb 585d 0d3e 92ca 533e
000000d0: 0ad7 233c d4e0 363e d1b6 a43d aff3 9dbb
000000e0: 0274 ee3d 6557 cb3d 13b9 673e f839 46be
000000f0: 0ad7 233c b110 fa3d 0ad7 233c f832 163d
00000100: 1542 32be 0509 ba3d 16a6 e43d ddfa 863d
00000110: 0429 9dbd a637 48bc 91e8 293e 525c f13c
00000120: c307 b63d 9e14 e73d b4e9 513e 88e1 903d
00000130: 0ad7 233c 16e4 133e 42f8 0cbe 0ad7 233c
00000140: a5d4 743d 0ad7 233c 6923 63be 44d5 bfbd
00000150: 89a1 36bc 0ad7 233c 06a2 9abb ead8 22bd
00000160: 60c7 d53d 0ad7 233c 8f8f fe3d 2cbd 003c
00000170: 0ad7 233c 9d1b 0d3e 6d77 5f3e 1da4 a63d
00000180: 5b50 143e cb3e ee3d a2fc 823d 86fa 7bbe
00000190: da81 82bd 7682 483d 09ec de3c 0ad7 233c
000001a0: 0ad7 233c b6ed 1d3d c53f b8bd c5ab e0bb
000001b0: cbb9 c43d e486 a53d 240b e83d cac2 c93e
000001c0: 7b92 243a eaa8 d73b d914 063d 0ad7 233c
000001d0: 369e 4e3e 27fc ed3d 9343 693b d8a0 82be
000001e0: 3c7e cb3d 5f82 0d3e addc a53d 5b23 73bd
000001f0: 126a c03d 0ad7 233c e67b 74be 95f3 de3b

fc2.weight f4 [64, 128]
-0.029067906 0.07366526 0.06252247 0.035428077 -0.06777944 -0.14432283 0.17265622 -0.09738069
0.19999216 -0.12971564 -0.17812866 0.12258546 -0.13525862 -0.2665382 0.10969763 -0.039411157
-0.13600247 -0.1543324 -0.021325635 -0.2928949 0.06013601 0.0792914 -0.010575499 -0.38043272
0.023740483 -0.09907396 -0.29032063 -0.034755263 -0.1807413 0.0021817803 0.059519082 0.07247044
-0.27972904 0.093573436 0.057403382 0.094940625 -0.003768612 -0.173779 0.009905738 0.03850343
0.13989718 0.16681926 -0.085027054 -0.14363474 0.08910295 0.104372814 0.009110797 -0.27704626
-0.04634541 0.08273863 0.05869489 -0.18996073 0.108518526 -0.14167759 -0.049721666 -0.03670449
-0.25466785 -0.14603023 -0.20615992 0.22102857 -0.092305936 0.20919931 0.0791436 0.045231678
-0.098805174 0.04181498 -0.027917013 0.031629227 -0.012588157 0.06563775 -0.1271198 -0.07992915
-0.11426444 -0.13470979 -0.32614678 0.03342118 0.10815413 -0.20466946 0.20249785 -0.13292241
-0.17289959 0.13156696 0.03193667 -0.1006366 0.0882331 -0.039648235 0.22182623 -0.050062783
-0.19483437 0.15495487 -0.10206077 -0.0017084596 0.16496073 -0.14040183 -0.19656377 -0.053376403
-0.2698327 0.045917317 -0.10472835 0.049118303 0.0901453 -0.05937935 -0.18577059 -0.05176811
0.13631843 -0.08199342 -0.06322538 0.032140955 -0.13753341 -0.1358956 0.035149354 -0.19085221
0.14511384 0.1462382 -0.096533075 0.09367947 -0.19443035 0.10320185 -0.049094096 -0.11382574
0.092167966 -0.0811718 -0.19754179 -0.0535834 0.008741516 0.11883433 -0.33720613 0.02084156
0.12406103 -0.04121052 -0.11987659 0.15830846 0.22445096 -0.08773787 0.0064196438 0.147258
-0.21378402 -0.0060279416 -0.041436188 -0.17184196 0.107959524 -0.102159224 0.16824733 -0.17451939
0.16788495 -0.11594241 -0.050245497 -0.038762677 -0.0032724007 0.43627313 0.045769252 -0.21433623
0.30437544 -0.35978368 -0.10232417 -0.10622287 -0.1507666 0.12377594 -0.27445894 0.19618872
-0.1020355 0.039613076 -0.2128848 -0.18349846 0.112941615 0.09355497 0.14273788 0.031145373
0.052916795 0.12025042 0.10154919 -0.26193672 0.074414186 0.04261008 -0.044366855 -0.19658874
-0.05960627 -0.2166635 -0.13670318 0.046035845 0.07826106 0.21615985 -0.21875496 -0.09568247
-0.21311593 0.17579055 -0.11359034 -0.44335303 -0.14145197 -0.08104504 0.07466395 -0.090668224
-0.16783635 -0.14160463 0.095262654 -0.32956627 -0.24225181 0.1487511 0.10558927 -0.32258978
0.111480236 0.002721595 -0.25224173 -0.008613555 -0.07800056 0.2026096 -0.31718853 0.013886929
-0.09860546 -0.17225683 0.2405957 0.0745673 0.0674584 -0.03854491 0.061513744 -0.15481162
0.05222404 0.030004129 0.15257512 0.17377354 -0.06912465 -0.05302056 -0.18499492 0.13630013
0.22329454 0.19263957 -0.010793268 0.06975368 -0.0893008 -0.15822607 -0.23365702 0.012495577
-0.15977299 -0.46572474 -0.063751824 -0.05227078 -0.15225013 0.017392825 -0.013893439 -0.30305257
0.22119604 0.13838737 -0.17516439 0.084518895 -0.36573422 -0.032385394 -0.08468066 -0.08238919
0.1636063 0.022400696 -0.26342326 -0.09366044 -0.053176697 -0.05403 -0.34712178 -0.23158444
00000000: d11f eebc d0dd 963d c80b 803d 081d 113d
00000010: f2cf 8abd 5dc9 13be cbcc 303e 876f c7bd
00000020: bfca 4c3e 2dd4 04be 5c67 36be 160e fb3d
00000030: 3c81 0abe b277 88be 27a9 e03d 986d 21bd
00000040: 3b44 0bbe 5009 1ebe 19b3 aebc 52f6 95be
00000050: 2d51 763d 8863 a23d dc44 2dbc 14c8 c2be
00000060: 677b c23c 4ae7 cabd e8a4 94be 895b 0ebd
00000070: 3f14 39be 33fc 0e3b 48ca 733d 626b 943d
00000080: a538 8fbe 6ea3 bf3d cf1f 6b3d 3b70 c23d
00000090: d1fa 76bb 1ff3 31be ad4b 223c c6b5 1d3d
000000a0: 3541 0f3e abd2 2a3e aa22 aebd fc14 13be
000000b0: 9c7b b63d 6ac1 d53d 7445 153c 02d9 8dbe
000000c0: afd4 3dbd df72 a93d 0e6a 703d 1185 42be
000000d0: f63e de3d ee13 11be f2a8 4bbd 7357 16bd
000000e0: d363 82be f388 15be 961b 53be 5055 623e
000000f0: e50a bdbd 5838 563e 0a16 a23d da44 393d
00000100: 5e5a cabd 2f46 2b3d 38b2 e4bc a68d 013d
00000110: 8f3e 4ebc 166d 863d b12b 02be e5b1 a3bd
00000120: 7a03 eabd 5df1 09be b6fc a6be a6e4 083d
00000130: ea7f dd3d df94 51be 995b 4f3e d01c 08be
00000140: 970c 31be 7db9 063e 07d0 023d 901a cebd
00000150: 8eb3 b43d 3066 22bd 6a26 633e a20e 4dbd
00000160: a982 47be 7dac 1e3e 3d05 d1bd 64ee dfba
00000170: 77eb 283e 7fc5 0fbe 0348 49be 37a1 5abd
00000180: 8327 8abe cc13 3c3d d17b d6bd 4630 493d
00000190: 199e b83d c337 73bd a53a 3ebe cc0a 54bd
000001a0: 0f97 0b3e 2bec a7bd 4f7c 81bd 3ca6 033d
000001b0: 8fd5 0cbe 3728 0bbe c5f8 0f3d c36e 43be
000001c0: b998 143e 77bf 153e 22b3 c5bd 06db bf3d
000001d0: c018 47be 7e5b d33d e416 49bd 781d e9bd
000001e0: 8fc2 bc3d 673d a6bd 6548 4abe 447a 5bbd
000001f0: 9338 0f3c 6a5f f33d 48a6 acbe ebbb aa3c
00000200: b613 fe3d 5dcc 28bd dc81 f5bd 9d1b 223e
00000210: 79d6 653e eaaf b3bd e05b d23b cdca 163e
00000220: 33ea 5abe 0a86 c5bb feb8 29bd 57f7 2fbe
00000230: e219 dd3d db38 d1bd 0749 2c3e 36b5 32be
00000240: 08ea 2b3e 3773 edbd 39ce 4dbd 9dc5 1ebd
00000250: c675 56bb 315f df3e 8a78 3b3d f57a 5bbe
00000260: 19d7 9b3e 9135 b8be 568f d1bd 608b d9bd
00000270: 8f62 1abe 3d7e fd3d e285 8cbe b2e5 483e
00000280: fdf7 d0bd 5241 223d 79fe 59be 05e7 3bbe
00000290: ef4d e73d c099 bf3d e129 123e 9524 ff3c
000002a0: 48bf 583d da45 f63d 06f9 cf3d 921c 86be
000002b0: 7766 983d e887 2e3d 05ba 35bd 8f4e 49be
000002c0: b425 74bd 09dd 5dbe ebfb 0bbe 1590 3c3d
000002d0: 5647 a03d 0259 5d3e 4d01 60be 2cf5 c3bd
000002e0: 103b 5abe 7002 343e 0da2 e8bd 2bff e2be
000002f0: c9d8 10be f1fa a5bd 6ae9 983d 43b0 b9bd
00000300: 4bdd 2bbe ce00 11be 1119 c33d e9bc a8be
00000310: dc10 78be 3552 183e 303f d83d 7d2a a5be
00000320: c04f e43d ca5c 323b d425 81be de1f 0dbc
00000330: c2be 9fbd e478 4f3e 8966 a2be 0086 633c
00000340: a9f1 c9bd 1864 30be b85e 763e beb6 983d
00000350: a127 8a3d 44e1 1dbd d6f5 7b3d f086 1ebe
00000360: e0e8 553d 38cb f53c a73c 1c3e b1f1 313e
00000370: 3991 8dbd 162c 59bd 4f6f 3dbe 4392 0b3e
00000380: 53a7 643e 4f43 453e 3fd6 30bc 04db 8e3d
00000390: 56e3 b6bd 0406 22be c943 6fbe 40ba 4c3c
000003a0: 889b 23be 7973 eebe 5190 82bd e319 56bd
000003b0: 75e7 1bbe 667b 8e3c 4fa1 63bc b529 9bbe
000003c0: 3781 623e 6bb5 0d3e 4b5e 33be 3e18 ad3d
000003d0: 8441 bbbe 8ca6 04bd 0e6d adbd aabb a8bd
000003e0: 6988 273e aa81 b73c 6adf 86be 0bd1 bfbd
000003f0: cfcf 59bd 904e 5dbd f2b9 b1be 7924 6dbe

fc2.bias f4 [64]
-0.047523674 0.073440254 0.06644019 -0.0031932855 0.01 0.0764891 0.018188087 0.048007578
-0.051956058 0.0024469732 0.05747103 0.018679626 0.012836896 0.05341362 0.09012155 0.030417973
-0.07467775 -0.114142604 0.031457067 0.027084414 -0.054368567 -0.0034766344 0.01 0.0034634098
0.1496552 0.09517793 0.24424781 -0.021335477 0.08063194 0.10570171 -0.022079524 0.16485372
0.10342018 0.10682653 -0.000611255 0.115818866 0.001469798 -0.021480914 0.115425654 -0.037034675
-0.060852997 0.09570603 -0.10042384 0.09647287 0.12066515 -0.07177132 0.001840559 0.1544126
0.10105534 0.16804992 0.0864421 -0.043170165 2.464201e-05 0.08512741 0.028647225 -0.032576162
-0.11322497 -0.0083960695 0.01 -0.20907044 -0.010747026 0.050418768 -0.036777288 0.120441586
00000000: 2fa8 42bd d867 963d cb11 883d 7146 51bb
00000010: 0ad7 233c 51a6 9c3d 2fff 943c 98a3 443d
00000020: e0cf 54bd 665d 203b be66 6b3d 0406 993c
00000030: d851 523c 3dc8 5a3d a691 b83d 1d2f f93c
00000040: a6f0 98bd 99c3 e9bd 20d9 003d 22e0 dd3c
00000050: 93b1 5ebd 3fd8 63bb 0ad7 233c 60fa 623b
00000060: 363f 193e a6ec c23d 191c 7a3e bdc7 aebc
00000070: 5c22 a53d 237a d83d 1ee0 b4bc 6acf 283e
00000080: f6cd d33d dec7 da3d a13c 20ba 7132 ed3d
00000090: 3da6 c03a bef8 afbc 4964 ec3d acb1 17bd
000000a0: fe40 79bd 8601 c43d 04ab cdbd 9193 c53d
000000b0: 4a1f f73d d8fc 92bd e93e f13a 561e 1e3e
000000c0: 1af6 ce3d 4715 2c3e 8e08 b13d 33d3 30bd
000000d0: 50b6 ce37 4857 ae3d 96ad ea3c 956e 05bd
000000e0: 7ee2 e7bd ab8f 09bc 0ad7 233c 9016 56be
000000f0: 4b14 30bc e983 4e3d c8a3 16bd 14aa f63d

fc3.weight f4 [32, 64]
-0.16516048 -0.19252408 -0.08260599 -0.15537202 -0.15905187 0.17911626 -0.16861577 0.04135799
0.11376282 -0.015948892 0.16121228 0.20166843 -0.284173 0.12310031 -0.17921683 -0.28000888
-0.07159906 -0.08646759 -0.09699606 -0.05282434 -0.18075465 -0.23928633 -0.19390315 -0.055416673
0.13940345 -0.090327375 0.058837775 0.21244752 0.0385336 -0.16735403 -0.034855302 -0.15842117
-0.15744993 -0.24440956 -0.18291226 -0.16813645 0.15181798 0.015904026 0.13757949 0.054599416
0.0600038 0.09606671 -0.019567616 -0.03092173 -0.17462784 0.1997184 -0.24904312 -0.26222578
-0.12720552 0.105751105 -0.11412506 -0.15837035 0.030816674 0.08730552 -0.09204297 0.16950497
0.15130375 0.21262217 0.05373028 -0.030005885 -0.18033628 0.077295505 0.07645033 0.07906053
0.17630064 -0.23563272 -0.1616378 -0.09378022 0.18955827 0.11566298 -0.0074230433 -0.03078691
-0.069096014 -0.24392799 -0.21150376 -0.19625589 -0.19731537 0.16653082 -0.16577922 -0.21267706
0.148546 0.033646826 -0.16394976 0.07384905 -0.01513483 -0.20797375 0.24890822 -0.035130482
-0.14451674 0.023384662 0.16292264 0.18422821 -0.16697823 0.051504914 0.201594 0.10256863
0.005665233 0.046483703 -0.12003687 0.023578212 -0.09888387 0.033425182 0.2138066 -0.1668398
0.08822684 -0.134426 -0.15880369 -0.09484244 0.012626879 0.094054475 -0.14828588 -0.18565735
-0.01774238 -0.053719014 -0.13064766 -0.040197365 -0.17074138 -0.019083586 0.058951207 -0.19266465
0.15872806 0.22657704 0.19345972 -0.17009741 0.01658776 0.1281469 -0.052524544 -0.038131967
0.1671027 0.0352923 -0.05138252 -0.23381639 0.1473856 0.22204219 0.016358556 -0.07601203
-0.15168929 0.012861365 -0.03374756 0.30629396 -0.13914302 -0.0006476268 0.29201072 0.15832767
-0.15575847 -0.008724675 -0.37557864 0.20827202 -0.14077538 0.11746087 0.16291887 -0.024040222
0.105754636 -0.02788704 -0.30505174 0.0003503721 0.10670365 0.20345245 -0.0574536 0.22438975
0.34587994 -0.12469344 0.19015025 0.33213323 -0.06318349 0.01260403 0.004676461 0.08160187
-0.005545841 0.10136366 -0.17749177 0.22724177 0.32354793 -0.32863158 0.20419222 0.10520207
0.24439856 0.40045738 0.15481016 -0.27606162 -0.17530303 -0.083869 0.07215212 0.18346287
-0.39804927 -0.20823666 0.06243658 0.14331008 -0.045999385 0.1306284 0.057624076 0.101772584
0.17260775 -0.3312342 -0.042867474 -0.20479694 -0.07805225 -0.049754832 0.00027245271 -0.2861125
-0.17866299 0.15047678 -0.22367701 0.26463285 0.070878655 -0.067038834 -0.006272012 -0.13684201
-0.14906226 0.082978405 -0.031732917 -0.06482899 -0.006715555 0.097715124 0.097277194 -0.2885217
-0.12805481 -0.03620405 0.26573467 -0.045053653 -0.2437802 0.037039552 -0.06416334 0.08418782
-0.056196123 -0.02001924 0.17972866 -0.19828257 0.0063115656 0.16567843 0.02877039 0.15333177
0.16057137 -0.06900834 -0.13052206 -0.35066524 0.13848118 0.11638452 -0.16967139 -0.02906626
-0.17211732 -0.23047507 -0.066908635 0.14654207 -0.184571 0.056338437 0.19888178 0.2275643
0.026815945 0.069900215 0.10849321 0.32200125 -0.038437806 -0.09221486 0.069771595 -0.011836855
00000000: d41f 29be 0825 45be 542d a9bd d819 1fbe
00000010: 7ede 22be 416a 373e 9da9 2cbe ff66 293d
00000020: 7bfc e83d 40a7 82bc d514 253e 2b82 4e3e
00000030: 207f 91be 041c fc3d 9e84 37be 535d 8fbe
00000040: 87a2 92bd eb15 b1bd dfa5 c6bd 565e 58bd
00000050: bf17 39be 7a07 75be 8c8e 46be 98fc 62bd
00000060: c7bf 0e3e 8ffd b8bd e1ff 703d d88b 593e
00000070: 68d5 1d3d db5e 2bbe 6fc4 0ebd 2939 22be
00000080: 8e3a 21be 8046 7abe 5a4d 3bbe f62b 2cbe
00000090: 2c76 1b3e 2949 823c a3e1 0c3e a3a3 5f3d
000000a0: 8bc6 753d a0be c43d 444c a0bc 914f fdbc
000000b0: a4d1 32be fb82 4c3e 2905 7fbe 7542 86be
000000c0: 2a42 02be 0994 d83d 66ba e9bd d62b 22be
000000d0: 4073 fc3c 3dcd b23d 0681 bcbd b692 2d3e
000000e0: 5fef 1a3e a0b9 593e 4814 5c3d e7ce f5bc
000000f0: 13aa 38be 1b4d 9e3d fe91 9c3d 7dea a13d
00000100: 2888 343e b449 71be 6184 25be d80f c0bd
00000110: 901b 423e b6e0 ec3d 003d f3bb d434 fcbc
00000120: 3682 8dbd 42c8 79be 7194 58be 4ef7 48be
00000130: 0a0d 4abe 0e87 2a3e 07c2 29be 04c8 59be
00000140: 711c 183e 41d1 093d 72e2 27be 2c3e 973d
00000150: 14f8 77bc 12f7 54be cce1 7e3e fbe4 0fbd
00000160: 32fc 13be 3191 bf3c 31d5 263e 52a6 3c3e
00000170: 57fc 2abe d1f6 523d a86e 4e3e 800f d23d
00000180: 6ba3 b93b b265 3e3d e4d5 f5bd 1827 c13c
00000190: a083 cabd d8e8 083d 1ef0 5a3e 0dd8 2abe
000001a0: 46b0 b43d f8a6 09be 6f9d 22be c13c c2bd
000001b0: f8e0 4e3c a29f c03d 41d8 17be f61c 3ebe
000001c0: 7858 91bc 7808 5cbd 80c8 05be fea5 24bd
000001d0: d4d6 2ebe 2e55 9cbc d276 713d e249 45be
000001e0: 9c89 223e d003 683e 4e1a 463e 042e 2ebe
000001f0: 0ee3 873c f138 033e fa23 57bd 4430 1cbd
00000200: f81c 2b3e a98e 103d 7a76 52bd 906d 6fbe
00000210: 40ec 163e 075f 633e 6102 863c 32ac 9bbd
00000220: 7054 1bbe 7ab8 523c e23a 0abd 90d2 9c3e
00000230: 827b 0ebe 80c5 29ba 6e82 953e a620 223e
00000240: 267f 1fbe f0f1 0ebc d84b c0be 4345 553e
00000250: 6c27 10be 538f f03d 34d4 263e 00f0 c4bc
00000260: e395 d83d 5d73 e4bc be2f 9cbe 26b2 b739
00000270: 7187 da3d d755 503e 7754 6bbd 6dc6 653e
00000280: 2d17 b13e 465f ffbd bfb6 423e 5e0d aa3e
00000290: 5866 81bd 2281 4e3c 003d 993b e21e a73d
000002a0: e3b9 b5bb c097 cf3d 67c0 35be 11b2 683e
000002b0: 13a8 a53e 6642 a8be c417 513e 2f74 d73d
000002c0: 9e43 7a3e c008 cd3e 8e86 1e3e f357 8dbe
000002d0: a382 33be 83c3 abbd 7ec4 933d b1dd 3b3e
000002e0: 1dcd cbbe fe3b 55be 80bd 7f3d e1bf 123e
000002f0: da69 3cbd 74c3 053e 3907 6c3d 256e d03d
00000300: 16c0 303e 8797 a9be ce95 2fbd 4ab6 51be
00000310: dcd9 9fbd b9cb 4bbd fcd7 8e39 567d 92be
00000320: 6ef3 36be 9616 1a3e 960b 65be f57d 873e
00000330: d428 913d a84b 89bd 7385 cdbb 5020 0cbe
00000340: c7a3 18be 95f0 a93d 60fa 01bd 10c5 84bd
00000350: 290e dcbb de1e c83d 4439 c73d 1eb9 93be
00000360: cd20 03be b34a 14bd 600e 883e 2e8a 38bd
00000370: 84a1 79be c9b6 173d 1268 83bd aa6a ac3d
00000380: e82d 66bd 64ff a3bc ca0a 383e 960a 4bbe
00000390: 40d1 ce3b 9ba7 293e e2af eb3c 0103 1d3e
000003a0: d26c 243e 3f54 8dbd 93a7 05be 658a b3be
000003b0: 03ce 0d3e 025b ee3d 56be 2dbe 5e1c eebc
000003c0: 863f 30be a801 6cbe 6507 89bd 200f 163e
000003d0: 2e00 3dbe 22c3 663d aaa7 4b3e 9e06 693e
000003e0: 1dad db3c d827 8f3d b031 de3d 59dd a43e
000003f0: f670 1dbd 25db bcbd 69e4 8e3d 5eef 41bc

fc3.bias f4 [32]
-0.025873201 -0.024419934 0.11156102 -0.10817724 0.00354019 0.095529824 0.16174617 -0.01343293
0.116477065 0.09181633 -0.0024370647 0.01 0.070910834 0.0024344574 0.09612788 0.031328518
0.0023764507 0.11521059 -0.059651744 0.12020779 -0.020908702 -0.004125599 0.006900936 0.048419602
0.09777698 -0.0715054 -0.035366304 0.011329631 -0.066487916 -0.052011844 -0.098153494 0.26782072
00000000: 09f4 d3bc 500c c8bc 1b7a e43d 078c ddbd
00000010: 8802 683b 24a5 c33d caa0 253e cb15 5cbc
00000020: 878b ee3d 330a bc3d 29b7 1fbb 0ad7 233c
00000030: b339 913d 6b8b 1f3b b2de c43d 5552 003d
00000040: 3abe 1b3b 88f3 eb3d 6355 74bd 802f f63d
00000050: ba48 abbc 0830 87bb 3f21 e23b a253 463d
00000060: 4c3f c83d 6c71 92bd 42dc 10bd eb9f 393c
00000070: d12a 88bd 5f0a 55bd b304 c9bd cc1f 893e

mu_layer.weight f4 [1, 32]
-0.23923577 -0.37299255 0.2638432 0.43297487 -0.20656101 0.6823059 0.69918364 0.4655887
0.48360518 -0.4551405 -0.3321377 0.24851125 -0.17434222 -0.13799292 0.15390202 -0.5029216
0.19966455 0.4259025 -0.7242243 0.3954418 -0.4205871 0.1440271 -0.46820062 -0.11761584
0.62607545 -0.9307279 -0.11964965 -0.08471334 -0.34620932 -0.5519122 -1.0188679 0.85806483
00000000: 39fa 74be e1f8 bebe 7516 873e e2ae dd3e
00000010: bb84 53be 99ab 2e3f b3fd 323f a461 ee3e
00000020: 199b f73e 2d08 e9be f40d aabe bc79 7e3e
00000030: c486 32be 044e 0dbe 7e98 1d3e 78bf 00bf
00000040: dd74 4c3e e40f da3e c466 39bf 5977 ca3e
00000050: 3157 d7be d77b 133e feb7 efbe 93e0 f0bd
00000060: 7b46 203f 2f44 6ebf e00a f5bd 307e adbd
00000070: 5942 b1be 1e4a 0dbf 436a 82bf 23aa 5b3f

log_std_layer.weight f4 [1, 32]
0.00060265005 -0.10713156 0.27982104 -0.17263938 -0.09463983 -0.36314693 -0.45836106 -0.20401539
0.32136258 0.19559734 0.55157197 -0.38746428 0.27292043 -0.60716385 0.28362423 0.38406527
0.31263253 0.27623558 0.4405342 0.24430962 -0.46789134 -0.20984346 0.024786884 0.38782275
-0.30339167 -0.34789535 0.24185708 0.11625346 0.30687732 0.18110333 -0.43462917 -0.16521847
00000000: 29fb 1d3a cb67 dbbd b444 8f3e 61c8 30be
00000010: 87d2 c1bd 65ee b9be 4dae eabe 69e9 50be
00000020: a389 a43e ab4a 483e d233 0d3f b861 c6be
00000030: 3abc 8b3e 176f 1bbf 3237 913e 34a4 c43e
00000040: 5f11 a03e c06e 8d3e b38d e13e 4d2c 7a3e
00000050: 748f efbe 34e1 56be dd0d cb3c b490 c63e
00000060: 2756 9bbe 571f b2be 62a9 773e 4b16 ee3d
00000070: 061f 9d3e 2773 393e b787 debe 082f 29be
